NeuralClubbing/best_model.pt (torch, 245719 bytes, 21 tensors)

embedding.weight f4 [12834, 4]
0.0 0.0 0.0 0.0 0.030238958 0.38263124 -0.513124 0.7104219
1.8091705 0.43522638 2.6453397 0.26535156 0.923499 -0.43755624 2.018187 1.3498383
-0.25230473 -0.035502523 -0.06455164 -0.59175915 1.7155781 -1.6697292 -0.26801547 -1.3486952
-1.529608 -1.2541903 1.1577811 0.7007053 -0.3643408 -2.1812322 0.89914006 -0.1118707
2.3958414 -1.0566225 0.5825632 -1.2664483 -1.3027681 -0.36411512 1.1151073 0.35086536
-1.1169975 -1.8016441 0.9244922 0.42206144 -0.6490947 -1.8387285 0.6974289 0.5101782
-1.403196 -1.3407559 3.6095011 0.613279 -1.5609742 -1.3021743 1.9444466 0.52064186
-2.478834 -2.4833856 2.5868814 -0.11886814 -1.8937902 -1.7089792 0.618169 -0.22762395
-1.1256208 -0.21919124 1.0822299 0.82070374 -3.0361364 -1.8516989 1.754978 -0.00019183526
-0.13362287 -2.848517 1.8511287 -1.0049126 -2.776512 -3.6335068 0.9282016 0.3766868
-0.86085904 -1.2071928 1.7159861 -0.35842246 -1.7938582 -0.6511476 1.2061478 0.33662513
-0.998875 -1.8728322 0.7841518 0.4142541 -2.08031 -1.4033319 1.427172 -0.1362565
-0.75700366 -0.65888596 1.8671471 -0.16146208 0.13159554 -0.870518 1.5055468 0.37475735
0.32754508 -0.8184486 2.7942648 0.4189988 -1.225242 -1.3259159 1.1207533 0.6866536
-1.2713127 0.005818216 2.7611125 0.23163974 -1.8539788 0.34888703 1.2028971 0.43723777
-0.938438 -1.2642705 0.4659503 0.25302547 -0.7805569 -0.80536413 0.9268068 0.13483061
-0.8702851 -1.2564191 1.4199567 0.1350243 0.062224515 1.1968176 3.1781063 1.4920676
-1.3576337 -1.0739706 1.9410324 -0.7563328 -1.4484516 -1.8582926 1.7441642 0.011034561
-1.7999153 -1.71007 0.8431339 -0.9740279 -1.1953173 -2.5992196 0.52506995 0.20013645
-6.1708493 -2.3918345 6.2797036 -0.56115544 -1.7365782 -0.72867763 -0.020477988 0.40321338
0.26184952 -1.6617264 1.0362513 0.36163867 -1.4242541 -1.3626186 0.7177347 0.347052
-0.38843575 -1.4175296 1.3438485 -0.22754242 -3.063008 -0.19123816 1.2905518 -0.406922
-0.13854063 -1.0284824 1.2688566 0.39800912 -1.0423717 -1.4218929 2.5070896 0.3468821
-1.415598 -1.8342941 0.13615696 -0.08915979 0.21361816 -2.3808966 1.6296266 0.11188668
-0.10940662 -1.9016407 1.0076565 0.28987315 -1.0097227 -1.3866855 0.16286859 0.39771977
-1.3186941 -1.8129505 0.8061461 0.32910812 -2.5865376 -2.5334456 2.7612271 -0.20730135
-2.927525 -1.8188105 2.0960119 0.072500445 -1.9977931 -3.27615 -0.017253628 -0.5186025
-1.0065768 -0.954253 1.210285 0.09609976 -0.77222204 -0.9657936 1.0001564 0.41055396
-2.6484063 0.39180648 1.0243827 0.9274403 -2.1316354 -1.0166702 1.6985226 0.06032678
-0.88723755 -0.9669993 1.5754358 0.37964818 -1.8907094 -1.297679 1.5153921 0.38776696
-1.5096904 -1.5825381 0.206702 0.40133023 -0.74289036 1.9806483 0.83032274 2.0468698
-0.8918006 -1.4178878 1.6266962 0.36260983 -0.5442173 1.7373693 1.2816095 2.2153904
00000000: 0000 0000 0000 0000 0000 0000 0000 0000
00000010: b1b7 f73c 3ee8 c33e 185c 03bf 36de 353f
00000020: e692 e73f fed5 de3e 3f4d 2940 29dc 873e
00000030: 6e6a 6c3f 5f07 e0be fa29 0140 80c7 ac3f
00000040: 162e 81be 186b 11bd a633 84bd 877d 17bf
00000050: 1098 db3f b0b9 d5bf 5339 89be 0ba2 acbf
00000060: 32ca c3bf 4f89 a0bf 2c32 943f 6c61 333f
00000070: e18a babe 4f99 0bc0 0b2e 663f 771c e5bd
00000080: 7755 1940 683f 87bf dd22 153f fa1a a2bf
00000090: 1bc1 a6bf 4c6d babe d6bb 8e3f a0a4 b33e
000000a0: c6f9 8ebf 469c e6bf 85ab 6c3f 7018 d83e
000000b0: 122b 26bf 755b ebbf b38a 323f 0a9b 023f
000000c0: ed9b b3bf e49d abbf 1102 6740 daff 1c3f
000000d0: 01ce c7bf a6ad a6bf a0e3 f83f c948 053f
000000e0: 37a5 1ec0 caef 1ec0 778f 2540 2471 f3bd
000000f0: b867 f2bf d5bf dabf 5340 1e3f 4116 69be
00000100: 5814 90bf ab73 60be 8286 8a3f a419 523f
00000110: 0f50 42c0 7804 edbf 1ea3 e03f 6327 49b9
00000120: 6fd4 08be 1a4e 36c0 c9f1 ec3f faa0 80bf
00000130: 5fb2 31c0 608b 68c0 9f9e 6d3f 18dd c03e
00000140: 4261 5cbf 4b85 9abf 6fa5 db3f 2683 b7be
00000150: 259d e5bf 9cb1 26bf 0d63 9a3f 215a ac3e
00000160: 46b6 7fbf f7b8 efbf 2cbe 483f 1d19 d43e
00000170: cd23 05c0 61a0 b3bf 92ad b63f d386 0bbe
00000180: feca 41bf c0ac 28bf adfe ee3f 5156 25be
00000190: fbc0 063e 45da 5ebf c2b5 c03f 32e0 bf3e
000001a0: fdb3 a73e d985 51bf 3cd5 3240 0387 d63e
000001b0: bbd4 9cbf 9db7 a9bf d874 8f3f 88c8 2f3f
000001c0: 60ba a2bf bca6 be3b 11b6 3040 f832 6d3e
000001d0: 2d4f edbf 52a1 b23e 88f8 993f a1dd df3e
000001e0: 793d 70bf 9ed3 a1bf 0a91 ee3e 8e8c 813e
000001f0: 94d2 47bf 582c 4ebf 3643 6d3f 0911 0a3e
00000200: 01cb 5ebf 57d2 a0bf 24c1 b53f cf43 0a3e
00000210: 22df 7e3d 5231 993f 1866 4b40 12fc be3f
00000220: f1c6 adbf de77 89bf c073 f83f 079f 41bf
00000230: dd66 b9bf 88dc edbf c640 df3f 4eca 343c
00000240: a063 e6bf 93e3 dabf a0d7 573f e459 79bf
00000250: 2800 99bf 9d59 26c0 fc6a 063f 92f0 4c3e
00000260: 9977 c5c0 d113 19c0 55f3 c840 e2a7 0fbf
00000270: 3248 debf 9e8a 3abf 74c1 a7bc fc71 ce3e
00000280: 2411 863e 73b3 d4bf e2a3 843f b428 b93e
00000290: f54d b6bf 496a aebf 76bd 373f cdb0 b13e
000002a0: 0de1 c6be 9c71 b5bf 3a03 ac3f e100 69be
000002b0: 5308 44c0 f0d3 43be cd30 a53f 1558 d0be
000002c0: 98dd 0dbe 50a5 83bf e569 a23f dac7 cb3e
000002d0: 706c 85bf 9600 b6bf 2874 2040 889a b13e
000002e0: 5132 b5bf 26ca eabf bb6c 0b3e 6899 b6bd
000002f0: b8be 5a3e 9c60 18c0 9b97 d03f d824 e53d
00000300: 9410 e0bd f668 f3bf e3fa 803f 416a 943e
00000310: 983e 81bf e97e b1bf 06c7 263e eda1 cb3e
00000320: f8ca a8bf c30e e8bf 975f 4e3f dc80 a83e
00000330: d589 25c0 f923 22c0 f2b7 3040 ce46 54be
00000340: 925c 3bc0 c8ce e8bf 0f25 0640 1d7b 943d
00000350: afb7 ffbf 71ac 51c0 7b57 8dbc 22c3 04bf
00000360: 82d7 80bf ed49 74bf 9eea 9a3f f3cf c43d
00000370: 58b0 45bf 403e 77bf 2005 803f 2134 d23e
00000380: 7d7f 29c0 dc9a c83e f91e 833f ba6c 6d3f
00000390: b76c 08c0 4022 82bf 3069 d93f 3719 773d
000003a0: 0022 63bf 448d 77bf e1a7 c93f 3f61 c23e
000003b0: c402 f2bf 581a a6bf 5ef8 c13f 6489 c63e
000003c0: 893d c1bf 9c90 cabf b0a9 533e 287b cd3e
000003d0: 102e 3ebf e285 fd3f 0890 543f eaff 0240
000003e0: 0b4d 64bf 597d b5bf 9537 d03f ffa7 b93e
000003f0: d351 0bbf 1e62 de3f c80b a43f f5c8 0d40

rnn.weight_ih_l0 f4 [64, 4]
0.51353174 0.6059662 -0.1704385 0.43459588 -0.2469 0.4487652 0.7944109 -0.61120963
-0.92640543 -0.21368997 0.03666128 0.7819996 -0.9747519 -1.6617434 0.22098882 0.98305094
-0.50257564 -0.16040911 -0.06793574 -0.03581834 0.14566983 -0.3172059 -0.2504205 -0.37915263
0.9089093 0.08249545 0.5696153 -0.08847329 0.8270119 -1.5504953 -1.0077752 -0.74436384
-0.22869432 0.926554 0.01864842 -0.52023524 0.75063014 1.1120361 -1.0005195 0.7241815
-0.1386306 -1.5264555 1.1138704 -0.014513505 -0.2374712 0.19977032 -0.07335502 -0.7761592
0.26143044 0.50101274 -0.85826004 -0.3938488 -1.1674229 0.15235154 0.19669773 -1.2294714
0.898566 -0.1675263 -0.054178447 2.0569358 0.3880588 1.7711717 0.4044601 -0.27430347
0.04665588 0.15176001 -0.37090203 0.3481459 -0.3991743 1.0474626 1.5932593 0.34919316
-0.55883896 -0.014253357 -0.77671856 0.32137164 -0.21924382 0.70154613 -0.4005828 -0.9121488
0.35394958 0.50395876 -0.43044782 -0.8744751 -0.12358619 0.111706614 1.3360568 0.49107543
0.5002431 0.23689489 0.6528301 -0.2000301 0.24833074 -0.8304405 -0.69682705 0.20449246
0.73636544 0.23593074 -1.1313168 0.043286256 0.54664874 0.18492779 0.97924966 -0.14865041
-0.006180167 0.6324444 -0.27064276 -0.522737 0.072563596 1.856691 0.31078345 0.6145658
0.32526377 0.77889097 0.36465663 1.140804 0.3088955 0.8872731 -1.2720301 0.02050378
-0.7966243 -0.2319339 -0.29143023 -0.33724308 -0.2358551 -0.21521704 -0.7985646 0.6019936
0.5690328 0.2636207 -0.15676895 0.28723434 -0.16610573 0.35584673 1.2324008 -0.49140906
-0.10095868 0.80641484 -0.7506933 0.86151326 0.2148406 0.007502359 0.049081385 1.2978702
0.44622573 0.6070253 -0.21134368 -1.7990233 -0.25190407 -0.52558714 -0.47295594 0.1913735
-0.60659784 0.74221426 1.0968285 0.28671572 0.26113167 0.4778371 -0.17195275 -0.16208865
0.37140468 0.39760116 -0.45627448 -0.7236266 0.25521657 0.7319323 -0.7688769 -0.63218105
-0.23134418 0.9592183 -0.78391933 0.5848677 0.7594014 -0.13696578 -0.027381618 -0.49318832
-0.26577035 0.586202 -0.22884886 0.04943881 -0.4315422 -0.09989509 0.06825128 0.9925474
0.23310411 -0.55762297 -0.09249563 0.8082482 -0.06080353 -0.3452383 0.33343795 0.64598536
1.2716844 0.2092781 -0.00024758556 -0.08257306 -1.0030977 0.9086104 1.0619878 -0.0104215
-0.73324656 -2.4421217 0.09383383 0.3777803 -0.8669456 -0.5686855 0.59719676 1.030145
-0.19141312 0.15643646 0.41779163 -1.2204479 1.2036312 -0.35032454 0.92284155 -1.0529671
-0.1383465 -0.7465048 1.1984457 -0.49961004 0.7480787 -0.49939528 -0.5988994 -0.78756577
0.04587531 0.8886498 -0.2248966 -0.038574472 0.79545873 1.5859957 -0.10911366 0.6054803
0.18471776 -1.1150376 1.3227587 0.62807214 -0.10262713 -0.35898393 0.39837304 -1.6727827
0.86565727 0.07434997 -0.7142279 -0.6685322 -1.5279559 0.30826083 -0.032595295 -1.2275189
0.06808958 0.06839626 0.26686054 1.0574859 1.6325065 1.4295902 0.11562783 -0.42619175
00000000: d176 033f 9a20 1b3f 6e87 2ebe 5a83 de3e
00000010: 5bd3 7cbe 8dc4 e53e 835e 4b3f 3c78 1cbf
00000020: e828 6dbf 8bd1 5abe 232a 163d 2031 483f
00000030: 5789 79bf 02b4 d4bf e54a 623e 3aa9 7b3f
00000040: cca8 00bf 4942 24be e521 8bbd 40b6 12bd
00000050: 792a 153e d068 a2be 1e37 80be 4b20 c2be
00000060: 48ae 683f 60f3 a83d 4fd2 113f 7c31 b5bd
00000070: 0db7 533f a176 c6bf c7fe 80bf a18e 3ebf
00000080: d82e 6abe a532 6d3f 92c4 983c 232e 05bf
00000090: 4c29 403f 3357 8e3f 0611 80bf f563 393f
000000a0: 2ef5 0dbe e562 c3bf 4e93 8e3f 0dca 6dbc
000000b0: a62b 73be 9790 4c3e 283b 96bd 5fb2 46bf
000000c0: 36da 853e 5f42 003f eeb6 5bbf 8da6 c9be
000000d0: 1d6e 95bf 0b02 1c3e 216b 493e 525f 9dbf
000000e0: 6c08 663f 048c 2bbe 38ea 5dbd d6a4 0340
000000f0: a5af c63e c1b5 e23f 6515 cf3e 8171 8cbe
00000100: 3c1a 3f3d fa66 1b3e dfe6 bdbe 2e40 b23e
00000110: 9360 ccbe 4113 863f ecef cb3f 72c9 b23e
00000120: 1210 0fbf ea86 69bc 07d7 46bf d38a a43e
00000130: 7481 60be 8798 333f 3019 cdbe 9582 69bf
00000140: e138 b53e 7103 013f a863 dcbe 9add 5fbf
00000150: c21a fdbd 70c6 e43d e903 ab3f 3d6e fb3e
00000160: ef0f 003f 9394 723e e01f 273f b1d4 4cbe
00000170: 6a4a 7e3e c097 54bf 4263 32bf 7966 513e
00000180: 7282 3c3f d497 713e fdce 90bf ee4c 313d
00000190: 2cf1 0b3f b65d 3d3e 1bb0 7a3f d037 18be
000001a0: 0083 cabb e0e7 213f b091 8abe 18d2 05bf
000001b0: 399c 943d 0da8 ed3f 021f 9f3e 2f54 1d3f
000001c0: f988 a63e 6665 473f 46b4 ba3e de05 923f
000001d0: 8d27 9e3e 5424 633f e2d1 a2bf 8bf7 a73c
000001e0: 92ef 4bbf 1580 6dbe 5836 95be 20ab acbe
000001f0: 0084 71be db61 5cbe bb6e 4cbf 411c 1a3f
00000200: 22ac 113f 4bf9 863e 0a88 20be 6110 933e
00000210: 9f17 2abe 8b31 b63e 4fbf 9d3f f899 fbbe
00000220: 6dc3 cebd 3471 4e3f 702d 40bf 228c 5c3f
00000230: 2dff 5b3e 59d6 f53b 9009 493d 9c20 a63f
00000240: b377 e43e 0366 1b3f 7a6a 58be 6546 e6bf
00000250: 92f9 80be e18c 06bf 4827 f2be 6af7 433e
00000260: ff49 1bbf c101 3e3f e064 8c3f 67cc 923e
00000270: 0db3 853e 10a7 f43e 6214 30be 91fa 25be
00000280: c128 be3e 6192 cb3e cf9c e9be 983f 39bf
00000290: bfab 823e ea5f 3b3f 1ed5 44bf 9ed6 21bf
000002a0: 7de5 6cbe 558f 753f f0ae 48bf e4b9 153f
000002b0: 2168 423f c240 0cbe 6a4f e0bc 2e83 fcbe
000002c0: 0d13 88be 5611 163f 5b57 6abe 5a80 4a3d
000002d0: 19f3 dcbe cc95 ccbd 54c7 8b3d 9617 7e3f
000002e0: d8b2 6e3e 61c0 0ebf 596e bdbd 5be9 4e3f
000002f0: 1f0d 79bd 13c3 b0be 61b8 aa3e 4c5f 253f
00000300: 8ec6 a23f 004d 563e 5fce 81b9 111c a9bd
00000310: 8165 80bf b19a 683f 37ef 873f f0be 2abc
00000320: 0cb6 3bbf b94b 1cc0 f32b c03d 6b6c c13e
00000330: 26f0 5dbf 5f95 11bf e3e1 183f cbdb 833f
00000340: cd01 44be e130 203e c9e8 d53e a337 9cbf
00000350: 9610 9a3f bd5d b3be 583f 6c3f a0c7 86bf
00000360: b4aa 0dbe f01a 3fbf ab66 993f e3cc ffbe
00000370: 1682 3f3f bdb0 ffbe 7951 19bf e99d 49bf
00000380: c0e7 3b3d 8e7e 633f 4b4b 66be 4400 1ebd
00000390: 2fa3 4b3f e801 cb3f fc76 dfbd c200 1b3f
000003a0: a726 3d3e 8db9 8ebf 2850 a93f 56c9 203f
000003b0: 2c2e d2bd becc b7be 8df7 cb3e be1d d6bf
000003c0: b79b 5d3f cc44 983d a4d7 36bf ed24 2bbf
000003d0: 0f94 c3bf 5dd4 9d3e a582 05bd 571f 9dbf
000003e0: 8d72 8b3d 5713 8c3d f2a1 883e b35b 873f
000003f0: f9f5 d03f d0fc b63f 49ce ec3d ce35 dabe

rnn.weight_hh_l0 f4 [64, 16]
1.3985188 -0.2703153 0.9039456 0.82921505 -0.2184059 -0.6390737 0.32869226 0.1739475
0.79418916 1.434521 1.923354 -0.51743513 0.9272366 1.313538 0.5614178 -1.0514444
0.35461694 0.47096446 0.8645412 0.22502528 -0.32829195 -0.40391257 -0.028933646 -0.04416572
1.3051977 1.5584047 -0.41472012 0.76101655 -0.03804264 -1.1398814 1.012547 -0.9492432
0.7701147 -0.21376541 0.20812443 0.20462933 0.6658206 -0.4695841 0.40237942 1.7603507
0.86347723 1.297589 -0.7019991 0.7434399 1.0242015 -0.52309954 0.44227028 -0.3581796
0.20179303 0.9273802 0.35396793 -0.5257164 0.5823775 -1.2084446 -0.15021959 -0.27637944
1.5908922 -0.56901455 -0.5492479 0.3927147 0.027758857 -0.6364089 0.7065352 -0.9563595
1.2970395 0.21490371 -0.75251245 1.1458441 1.4036638 0.15944427 -0.22237687 -0.29502517
0.934687 1.8798198 0.15928021 1.2707969 -0.16370921 -0.2752241 0.81040496 1.1398584
-1.0276753 0.39521548 -0.6706593 2.2655985 0.37780136 1.011439 -0.5922415 -0.21453376
0.88534945 0.83644 -1.5603305 1.5625298 -0.3362184 0.3055687 1.419695 -0.29645994
-0.021503927 -0.67145854 1.6786555 1.8762339 0.10095553 0.12270813 0.04944344 0.19906768
-0.44101378 0.74920243 -0.784071 0.36056146 0.2566256 -0.45202693 -0.3589691 -0.12525004
1.7699175 -0.61122745 0.78487134 0.08016946 -1.1468741 -0.20758688 -0.7612829 0.5967089
0.34296778 -0.77067775 -0.23733896 0.73245835 -0.35792717 0.49833897 -0.2383751 1.6569955
0.16239877 -1.055209 0.52065253 0.89418393 -0.63977283 -0.14917025 -0.26646933 0.6064099
0.9914165 0.6870989 -0.6663443 0.42886668 -0.24196982 -0.005563878 0.042081874 -0.9951212
0.4195329 -0.5139284 -0.27202404 -0.6145559 -0.8427773 -0.08929531 0.40606028 -0.16057567
0.050764043 -0.14943609 -0.21905994 -0.47208613 -0.54631233 0.51508355 1.3639635 -0.23172331
0.9623478 1.3814201 -0.780127 0.72277457 -0.37546775 0.2941329 0.23589768 1.3089268
0.79936606 0.9165123 0.1089801 -0.22431068 1.3872316 -0.31695268 0.5563756 -0.3706803
1.4940295 1.7681586 -1.1230808 0.90445656 0.5124147 0.29309502 0.3147068 0.6625151
1.1367818 0.75877905 -0.33085 0.59746337 -0.0994562 -0.8691593 1.0369685 -0.42751625
0.7687875 1.3482984 -0.8028136 -0.0018221155 -0.58016676 0.41045263 -0.6381751 -0.22250775
-0.13519368 0.12775809 -0.029922288 -0.3348602 0.19651224 -0.3199732 0.5932513 0.48604932
1.8516965 -0.050362602 -0.07399898 0.2720665 0.44261256 0.5623992 -0.14009707 0.7665434
0.9688371 -0.31813896 0.43132663 0.5101111 0.6729895 -0.9326918 1.6462346 0.4129301
0.08712644 0.50380856 -1.0317352 -0.6551598 0.44440338 -0.5513281 -0.12358903 0.6463724
0.99623644 1.2946303 -1.4336213 -0.15656523 0.824849 0.41655463 -1.3645487 -1.6356621
-0.30746207 -1.4359131 -0.6946747 -1.8601922 1.1379005 0.6211962 -1.2623103 0.5398011
0.00706525 -0.08276931 -1.503862 0.7514624 -0.36348608 -0.62257254 0.40699676 -0.1682807
00000000: aa02 b33f c466 8abe fb68 673f 7047 543f
00000010: cca5 5fbe 569a 23bf 5a4a a83e 4b1f 323e
00000020: fb4f 4b3f 629e b73f 7730 f63f a176 04bf
00000030: 615f 6d3f 0322 a83f 14b9 0f3f bb95 86bf
00000040: 5a90 b53e 4122 f13e 9252 5d3f 076d 663e
00000050: e215 a8be a1cd cebe 4106 edbc 1de7 34bd
00000060: b810 a73f ce79 c73f 3256 d4be fbd1 423f
00000070: 99d2 1bbd a2e7 91bf 249b 813f 9a01 73bf
00000080: 3d26 453f 52e5 5abe 921e 553e 5a8a 513e
00000090: 3873 2a3f 546d f0be ad04 ce3e 2c53 e13f
000000a0: d80c 5d3f 6517 a63f 37b6 33bf 1452 3e3f
000000b0: 0919 833f dae9 05bf 4071 e23e 5163 b7be
000000c0: d5a2 4e3e ca68 6d3f 493b b53e 5a95 06bf
000000d0: b116 153f 50ae 9abf 2ad3 19be 9b81 8dbe
000000e0: 5ba2 cb3f f0aa 11bf 839b 0cbf e711 c93e
000000f0: 8b66 e33c b2eb 22bf 7edf 343f fad3 74bf
00000100: 6405 a63f b80f 5c3e a8a4 40bf 05ab 923f
00000110: 41ab b33f 5c45 233e c3b6 63be 8a0d 97be
00000120: a647 6f3f ef9d f03f 5a1a 233e 79a9 a23f
00000130: 63a3 27be 2cea 8cbe b376 4f3f e1e6 913f
00000140: dd8a 83bf af59 ca3e 54b0 2bbf 91ff 1040
00000150: 2e6f c13e d576 813f 249d 17bf bdae 5bbe
00000160: 43a6 623f ef20 563f e9b8 c7bf fa00 c83f
00000170: d124 acbe 8073 9c3e 91b8 b53f 99c9 97be
00000180: 0129 b0bc b5e4 2bbf 2fde d63f 6f28 f03f
00000190: c6c1 ce3d 664e fb3d 3485 4a3d 66d8 4b3e
000001a0: 8fcc e1be bbcb 3f3f e1b8 48bf 839b b83e
000001b0: 6e64 833e 1370 e7be ccca b7be 8c41 00be
000001c0: a88c e23f 6779 1cbf 54ed 483f e32f a43d
000001d0: c5cc 92bf a891 54be 70e3 42bf eac1 183f
000001e0: 7999 af3e 234b 45bf fc08 73be 6482 3b3f
000001f0: 3b42 b7be 4926 ff3e 9a18 74be 6e18 d43f
00000200: dd4b 263e 1711 87bf 7c49 053f 3de9 643f
00000210: 27c8 23bf 16c0 18be ab6e 88be ae3d 1b3f
00000220: 79cd 7d3f b7e5 2f3f 8a95 2abf 6a94 db3e
00000230: f0c6 77be 3151 b6bb 0b5e 2c3d 43c0 7ebf
00000240: 04cd d63e d090 03bf bc46 8bbe 8953 1dbf
00000250: 41c0 57bf 76e0 b6bd 22e7 cf3e f36d 24be
00000260: f5ed 4f3d c605 19be 4051 60be 46b5 f1be
00000270: 20db 0bbf 84dc 033f 5b96 ae3f e048 6dbe
00000280: 6d5c 763f 60d2 b03f 67b6 47bf c107 393f
00000290: 4f3d c0be 9698 963e 298f 713e ea8a a73f
000002a0: 41a3 4c3f 8da0 6a3f f530 df3d b3b1 65be
000002b0: ce90 b13f 9f47 a2be a26e 0e3f cfc9 bdbe
000002c0: 5c3c bf3f 0553 e23f 1dc1 8fbf 778a 673f
000002d0: 9c2d 033f 8d10 963e 4021 a13e 979a 293f
000002e0: 1182 913f 583f 423f 2c65 a9be 5cf3 183f
000002f0: b1af cbbd 3981 5ebf 62bb 843f 69e3 dabe
00000300: 42cf 443f 0b95 ac3f 3185 4dbf 0dd4 eeba
00000310: cf85 14bf d926 d23e 715f 23bf 12d9 63be
00000320: 3670 0abe 04d3 023e 961f f5bc cc72 abbe
00000330: 813a 493e 87d3 a3be 51df 173f 75db f83e
00000340: 6404 ed3f 0449 4ebd c78c 97bd 4d4c 8b3e
00000350: 1d9e e23e 65f9 0f3f 9b75 0fbe 303c 443f
00000360: b505 783f 1ce3 a2be d8d6 dc3e a496 023f
00000370: 0a49 2c3f e4c4 6ebf d1b7 d23f 936b d33e
00000380: 596f b23d 99f9 003f e60f 84bf 8db8 27bf
00000390: d788 e33e d723 0dbf 3f1c fdbd a978 253f
000003a0: 5a09 7f3f 72b6 a53f e780 b7bf a352 20be
000003b0: 4e29 533f a646 d53e 88a9 aebf 605d d1bf
000003c0: ab6b 9dbe 00cc b7bf 33d6 31bf c71a eebf
000003d0: b9a6 913f b706 1f3f 6293 a1bf 6830 0a3f
000003e0: 9d83 e73b f582 a9bd 8d7e c0bf d75f 403f
000003f0: d91a babe ea60 1fbf e161 d03e c751 2cbe

rnn.bias_ih_l0 f4 [64]
-0.23006976 -0.052053876 -0.10791161 -0.06827054 1.086774 0.3415928 0.023346722 -0.3416075
-0.031247739 -0.005741038 -0.2552493 0.49097908 0.6430858 -0.5007888 -0.07783348 -0.7899445
-0.21705301 0.36006388 -0.4128103 0.13343216 0.07882597 0.43319464 0.14348534 -0.09721233
-0.07296328 -0.065622464 0.1255537 -0.0022011104 -0.34497392 -0.3851087 0.5898558 -0.2140501
-0.100459866 0.18116967 0.4656428 -0.32541385 0.47507837 0.04972092 0.5144792 -0.032670792
0.07203299 0.3202446 0.6971206 -0.5491695 0.4042378 0.1249405 -0.6499623 0.12153974
-0.13040939 0.544666 0.25306156 0.012562971 0.72151756 0.5541698 0.4990817 -0.17589717
0.1297019 0.3920352 -0.1209442 0.47599766 0.0010259831 0.6781791 0.4249472 0.25851
00000000: 6897 6bbe 7236 55bd c300 ddbd 6dd1 8bbd
00000010: 691b 8b3f 40e5 ae3e a041 bf3c 2ee7 aebe
00000020: 42fb ffbc 511f bcbb 09b0 82be 9c61 fb3e
00000030: 45a1 243f b233 00bf 2967 9fbd ce39 4abf
00000040: 2543 5ebe 4b5a b83e df5b d3be 71a2 083e
00000050: 836f a13d b0cb dd3e d2ed 123e 4217 c7bd
00000060: c66d 95bd 1265 86bd 2691 003e 8140 10bb
00000070: 6ca0 b0be f82c c5be ca00 173f f32f 5bbe
00000080: e7bd cdbd 8b84 393e bc68 ee3e a59c a6be
00000090: 793d f33e 2aa8 4b3d e9b4 033f cfd1 05bd
000000a0: 0886 933d 1af7 a33e 7f76 323f 5f96 0cbf
000000b0: 42f8 ce3e cee0 ff3d ee63 26bf d4e9 f83d
000000c0: 0a8a 05be 3b6f 0b3f 4991 813e ebd4 4d3c
000000d0: 60b5 383f 12de 0d3f a387 ff3e 631e 34be
000000e0: 93d0 043e d6b8 c83e 98b1 f7bd f7b5 f33e
000000f0: 487a 863a 259d 2d3f ae92 d93e 6c5b 843e

rnn.bias_hh_l0 f4 [64]
-0.31882593 0.34042874 -0.29836917 -0.05004637 1.1793438 0.37861457 0.091541305 -0.24078223
0.10563601 0.2948586 -0.113427475 0.777684 0.2180836 -0.4997433 0.20288989 -0.79247177
-0.24297062 0.1964731 -0.38068828 0.13694301 -0.21511856 0.14070147 0.26349223 -0.19296052
0.11802065 -0.319099 0.063644476 0.13000776 -0.34321746 -0.3900247 0.91316277 -0.09292885
-0.2811353 0.15062788 0.40402177 -0.3693901 0.46959087 -0.27336717 0.3815378 0.22094965
-0.21422817 0.06499956 0.676898 -0.5466611 0.113941036 -0.05980999 -0.36395076 0.1916777
-0.28315133 0.38254982 0.28870106 0.2251823 1.047201 0.18421386 0.18866569 0.20679477
0.4469383 -0.07270663 0.094071515 0.49866718 0.30689678 0.36804545 0.22842441 0.27602968
00000000: 273d a3be ad4c ae3e d8c3 98be 6cfd 4cbd
00000010: bdf4 963f c5d9 c13e 027a bb3d 9e8f 76be
00000020: b157 d83d b5f7 963e aa4c e8bd 4c16 473f
00000030: 4f51 5f3e 5bde ffbe 5ec2 4f3e 6edf 4abf
00000040: 4acd 78be 3f30 493e 93e9 c2be ca3a 0c3e
00000050: 0a48 5cbe 0c14 103e 74e8 863e 7197 45be
00000060: d0b4 f13d f260 a3be 0958 823d c120 053e
00000070: 33ba afbe 51b1 c7be 09c5 693f 7b51 bebd
00000080: f7f0 8fbe 323e 1a3e f1db ce3e b320 bdbe
00000090: 376e f03e c8f6 8bbe ec58 c33e a040 623e
000000a0: a15e 5bbe 7d1e 853d 3049 2d3f fbf1 0bbf
000000b0: eb59 e93d 52fb 74bd c157 babe 2947 443e
000000c0: 36f9 90be 92dd c33e a0d0 933e 3096 663e
000000d0: af0a 863f 8fa2 3c3e 9431 413e 02c2 533e
000000e0: 19d5 e43e 37e7 94bd 91a8 c03d 4e51 ff3e
000000f0: 9321 9d3e 7470 bc3e 17e8 693e c353 8d3e

rnn.weight_ih_l0_reverse f4 [64, 4]
-0.6598254 0.4041052 -0.34853855 -1.2493529 -0.006787232 -0.6409392 0.46175995 -1.2460725
-0.43335608 -0.6590328 -0.02514989 -0.19395022 -0.25669938 1.0657942 -0.31724733 0.29099718
-0.60793513 -0.8605809 -0.06334845 0.13625878 -0.9140701 -1.3922346 -0.0049805525 0.5662893
0.53131723 0.17428467 -0.42059082 0.49961817 0.07243053 0.2759073 0.3584113 -0.9921356
-1.152619 0.28832328 0.28791103 -0.3470806 -0.13219087 0.60040706 0.12667246 -0.22406077
0.29226258 0.8285871 0.14171176 0.137666 -0.22610652 -0.011011368 -0.44751242 0.8708399
0.23819062 0.13940114 -0.39147028 -0.76421237 -0.3944793 -0.75528777 -0.09666575 -0.2140792
-0.35744545 0.025899934 0.52751166 -0.30474663 -0.07074906 0.9425189 0.6245017 -0.52890825
1.0222327 -0.10915624 -0.22516938 -1.1641699 0.32320753 2.2897193 -2.0733504 0.39575484
-1.2852014 0.93856543 -1.2681642 0.44582143 0.4448213 0.48937902 0.22472848 -0.23316428
-0.3997658 -0.4076306 0.11080885 -0.18767445 0.78842384 0.616516 0.96685326 -0.65374154
1.0449569 0.09235155 0.23389606 -0.1794031 0.013763812 1.105196 -0.010854363 0.41184482
0.44930845 0.22334331 0.79063904 1.0866972 0.1839072 0.931115 -0.44755122 -0.32928365
0.8208605 -0.15063898 0.9743694 0.4101119 -1.494899 0.81628275 -0.5468306 0.78042096
-0.27754003 -0.2963779 0.31409857 -0.7918612 1.0758023 0.37847653 -0.19266327 0.85782367
0.37825078 0.4337295 -1.7843151 0.17329282 -0.37464532 0.18992083 -0.48848766 0.15376547
0.6219395 -0.33757538 0.29233503 0.6156666 0.8572121 0.0385811 -0.2648454 0.06956447
0.20495775 -0.8735549 0.42883894 -0.22004956 -0.34900215 -0.4271295 0.6235329 -0.1507424
0.13368778 0.2858489 -0.11344791 1.2725397 0.30498627 0.21676901 -0.21669407 0.8800902
-0.13168705 -0.5659066 0.5470017 -0.64655465 -0.2908766 -0.17264614 -0.0005986381 0.84270376
0.15441705 0.24086572 -0.27997977 -1.3440096 0.5558966 0.65049845 -0.1322181 -1.6885409
0.26321083 0.44489723 -0.061759815 -0.26638663 0.10766916 -1.35829 -0.059538603 0.18018614
0.39917898 -0.22878897 -0.7188452 -0.24749091 0.6036006 -0.15180922 0.6604258 -0.81950504
0.6420126 0.2932807 -0.6933285 -0.68376374 -0.3296501 -0.18990381 0.7533745 0.33202893
0.5378703 0.2026643 -1.2460335 0.13520136 0.36331007 -1.5814465 0.3358877 -0.5714008
-0.35449734 0.14632349 0.39736885 -0.7066811 0.31070483 0.9546705 -0.16639206 -0.003941074
-0.8629881 -0.6200368 0.3716185 0.7932394 -1.6010747 -0.57757485 0.43842438 0.77097434
0.59484 0.12026645 0.3556228 0.02012938 -0.7873736 0.65433335 -0.38548672 -0.5349494
-0.65156806 0.06305767 1.4833447 -1.0708677 -0.042505175 0.5719814 0.34900796 -0.96373075
0.6883491 -0.26071754 -0.8439341 0.35484308 -0.9973993 -0.4391306 0.17094958 0.69653684
0.022232566 0.15431215 -0.948251 -0.2978163 0.046532646 -1.2415565 0.097785786 -1.8494442
0.32361138 0.090167835 0.731847 -1.0018569 0.50858164 1.3238401 0.44949937 -0.44668144
00000000: 51ea 28bf e0e6 ce3e a573 b2be ccea 9fbf
00000010: 6e67 debb 9714 24bf cd6b ec3e 4e7f 9fbf
00000020: d9e0 ddbe 60b6 28bf 2407 cebc e39a 46be
00000030: 1a6e 83be f26b 883f 3e6e a2be 95fd 943e
00000040: a3a1 1bbf 084f 5cbf d5bc 81bd 6c87 0b3e
00000050: 8000 6abf be34 b2bf e733 a3bb 56f8 103f
00000060: 6804 083f ae77 323e ae57 d7be f4cd ff3e
00000070: 7556 943d b943 8d3e b081 b73e 99fc 7dbf
00000080: 0589 93bf 1c9f 933e 1369 933e 8cb4 b1be
00000090: 0b5d 07be 47b4 193f 6db6 013e 3070 65be
000000a0: 71a3 953e 491e 543f e31c 113e 51f8 0c3e
000000b0: 7888 67be 0669 34bc 5920 e5be 5def 5e3f
000000c0: 3ee8 733e 2cbf 0e3e cb6e c8be 6ca3 43bf
000000d0: 31f9 c9be 8a5a 41bf b1f8 c5bd 9437 5bbe
000000e0: 1703 b7be 192c d43c 010b 073f c007 9cbe
000000f0: e2e4 90bd eb48 713f 58df 1f3f 8866 07bf
00000100: 85d8 823f 4f8d dfbd cd92 66be 8503 95bf
00000110: 757b a53e c38a 1240 c6b1 04c0 61a0 ca3e
00000120: 7b81 a4bf d345 703f 3453 a2bf b542 e43e
00000130: 9ebf e33e e38f fa3e 391f 663e 9ec2 6ebe
00000140: 1aae ccbe f5b4 d0be c0ef e23d bb2d 40be
00000150: 25d6 493f fed3 1d3f b283 773f 9b5b 27bf
00000160: 26c1 853f cf22 bd3d 7382 6f3e 72b5 37be
00000170: 9d81 613c 1077 8d3f 80d6 31bc 53dd d23e
00000180: c20b e63e 1cb4 643e 5267 4a3f e518 8b3f
00000190: 2b52 3c3e 8d5d 6e3f 6f25 e5be de97 a8be
000001a0: ea23 523f 1b41 1abe 4670 793f 30fa d13e
000001b0: da58 bfbf e8f7 503f 17fd 0bbf abc9 473f
000001c0: ba19 8ebe d8be 97be 87d1 a03e 6ab7 4abf
000001d0: e4b3 893f adc7 c13e 8549 45be 559a 5b3f
000001e0: 16aa c13e cb11 de3e 7064 e4bf ac73 313e
000001f0: 83d1 bfbe 9b7a 423e 0e1b fabe b274 1d3e
00000200: 6d37 1f3f aed6 acbe f0ac 953e 549c 1d3f
00000210: 4172 5b3f 3707 1e3d d199 87be d177 8e3d
00000220: 72e0 513e 4ba1 5fbf c790 db3e ac54 61be
00000230: 69b0 b2be b8b0 dabe da9f 1f3f 375c 1abe
00000240: 73e5 083e c95a 923e 6157 e8bd 95e2 a23f
00000250: 2927 9c3e b2f8 5d3e 0de5 5dbe 974d 613f
00000260: f8d8 06be 41df 10bf 4e08 0c3f 9b84 25bf
00000270: c7ed 94be 26ca 30be eced 1cba 6fbb 573f
00000280: 811f 1e3e 81a5 763e 8259 8fbe 8208 acbf
00000290: 3d4f 0e3f 1187 263f 2e64 07be 1c22 d8bf
000002a0: 92c3 863e 92c9 e33e dcf7 7cbd d463 88be
000002b0: a681 dc3d 72dc adbf c0de 73bd b782 383e
000002c0: 3061 cc3e a847 6abe 3d06 38bf 426e 7dbe
000002d0: 9285 1a3f e073 1bbe aa11 293f 15cb 51bf
000002e0: f05a 243f e328 963e fa7d 31bf 240b 2fbf
000002f0: e6c7 a8be 2576 42be 27dd 403f b2ff a93e
00000300: deb1 093f 3b87 4f3e 077e 9fbf 3a72 0a3e
00000310: c703 ba3e d76c cabf 79f9 ab3e 5347 12bf
00000320: ad80 b5be d3d5 153e ee73 cb3e 0de9 34bf
00000330: b414 9f3e 4965 743f ae62 2abe 2024 81bb
00000340: caec 5cbf bbba 1ebf c844 be3e bd11 4b3f
00000350: 04f0 ccbf f2db 13bf 2979 e03e 935e 453f
00000360: 6f47 183f 424e f63d 3114 b63e 5fe6 a43c
00000370: 5191 49bf 6482 273f 845e c5be 72f2 08bf
00000380: 2acd 26bf 6124 813d 3dde bd3f 3112 89bf
00000390: e819 2ebd 5f6d 123f 2cb1 b23e 0fb7 76bf
000003a0: a637 303f c57c 85be 110c 58bf fead b53e
000003b0: 8f55 7fbf bad5 e0be 680d 2f3e 3d50 323f
000003c0: 1221 b63c 0104 1e3e 94c0 72bf 617b 98be
000003d0: 0499 3e3d 53eb 9ebf ea43 c83d 96ba ecbf
000003e0: 64b0 a53e eaa9 b83d 535a 3b3f d93c 80bf
000003f0: 6832 023f 9873 a93f c824 e63e 6eb3 e4be

rnn.weight_hh_l0_reverse f4 [64, 16]
0.72345567 -0.62807035 0.7241816 -0.070048615 -0.7459417 -0.1935426 -1.7056099 1.5286832
-0.8338716 -1.1921301 1.8671864 -0.62222147 -0.30168235 -0.6122928 -0.25486785 1.2608769
-0.3370592 -0.17339858 -0.65404415 1.0234098 0.26728413 1.508138 -0.4375166 1.299495
0.94587 0.0074153966 0.45374128 -0.54258287 1.0614878 -0.89577156 -0.6114842 0.42107895
-1.5157201 -1.0898308 -1.4614947 -0.49645543 0.8135931 0.32961646 0.5090055 0.2739876
1.1026045 0.65437615 -0.16024913 -0.446196 1.2318369 0.13766316 -0.30966127 0.02420501
1.0058408 0.05348256 0.32276437 1.1864774 -0.49608353 -1.2754202 1.6064245 0.14575365
-1.2531866 -0.56339604 -0.6634795 -0.54422987 0.15866892 0.07957223 -1.1800793 1.1839622
-0.53814083 0.16110596 -0.18642087 0.6362106 0.37117004 1.2323407 0.29286763 -0.70359117
0.5103076 0.28720325 -0.54524493 -0.16545871 0.712641 0.07915329 0.60684377 0.21672872
-0.53162575 -0.32093447 -0.966976 0.0013374321 1.6738533 1.2804427 -0.89680046 -0.7969675
0.4428459 0.78386074 -0.04026824 -0.62583834 -0.043862324 -0.8139487 -0.021781724 0.48001605
-0.0472386 0.21523452 1.1344569 0.38365388 0.16906928 -0.024175182 -0.9838777 0.87798846
-0.6940913 -1.3058608 -0.25614318 -0.15028791 0.38002038 0.10637553 -0.56620383 -0.24833666
0.15147789 0.16611259 0.6456046 -0.50184304 -0.7190575 -0.75026137 0.13410501 0.38761106
-1.1958547 -0.44285378 0.52996004 -0.004583657 0.8983472 0.07999619 0.59806895 0.3874175
-0.15027341 1.095218 -0.58373755 -0.11784113 1.258475 1.4135158 0.5924073 -1.1914867
0.4852948 -0.17912944 -0.5539451 0.4623237 -0.7761614 1.433856 1.279398 -1.0703001
1.3809046 -0.26494375 -0.5700406 -0.8959874 1.0485545 1.9227926 2.049795 -0.1389492
0.96230316 0.095741734 -2.0696704 1.3646679 -0.122808 0.6446676 0.94518423 0.45047292
-0.9649147 -0.47414842 0.34948018 0.7695034 -0.57423794 -0.25472766 0.8809423 -0.22157879
0.51020783 -0.8846231 1.5438244 -0.9166662 0.4423119 -0.81629056 -0.90137655 -0.4739637
-1.7888558 -0.31106013 -0.04576427 0.14080295 0.62068695 0.67986274 -0.023809478 0.6356269
-0.7265349 -0.38188097 0.047517434 0.71407336 0.709435 -0.16629969 -1.1204301 -0.7276903
-0.11867208 -0.86874855 -0.31168076 -0.073495075 0.8063701 1.3512841 -0.6243444 -0.8317461
1.5975327 0.3557507 -0.6738427 -1.6115041 -0.35089666 -0.096102834 0.08757337 -1.227879
2.6256123 0.86500734 -0.20780054 -0.815076 -1.3309897 -1.1760226 0.270257 0.325206
-1.0736076 0.36856887 0.69202006 0.17208847 0.98516357 -0.5214042 -0.7289782 0.8364263
-0.021730388 -0.6207885 0.9052618 -1.3734713 -0.51184875 -0.62375844 0.35135 0.109600514
1.6884819 0.99606913 1.110253 0.06603329 0.25386363 0.5457103 0.3015432 -0.3894558
-0.112549976 -0.28130588 0.59036666 -0.07456328 -1.5452769 -0.52133113 0.1581345 -0.9291706
-0.9050537 0.3020859 0.44085154 1.232095 0.87202394 -0.124213375 0.817857 -0.45844758
00000000: 6434 393f 38c9 20bf f763 393f a675 8fbd
00000010: 09f6 3ebf 0830 46be 6d51 dabf e4ab c33f
00000020: 9c78 55bf b897 98bf f7ff ee3f e849 1fbf
00000030: 1c76 9abe 39bf 1cbf 0a7e 82be 6a64 a13f
00000040: 0693 acbe 668f 31be 706f 27bf 18ff 823f
00000050: 77d9 883e aa0a c13f 2d02 e0be da55 a63f
00000060: 8924 723f dbfc f23b c750 e83e b6e6 0abf
00000070: d5de 873f 4951 65bf 3b8a 1cbf a997 d73e
00000080: 1e03 c2bf 937f 8bbf 4212 bbbf 682f febe
00000090: a347 503f 7dc3 a83e 2f4e 023f 1a48 8c3e
000000a0: 2522 8d3f 3285 273f 5918 24be cd73 e4be
000000b0: d5ac 9d3f 92f7 0c3e ec8b 9ebe 9649 c63c
000000c0: 64bf 803f 8710 5b3d 5f41 a53e 7ede 973f
000000d0: a9fe fdbe f840 a3bf 519f cd3f 7240 153e
000000e0: 6b68 a0bf b93a 10bf cbd9 29bf a652 0bbf
000000f0: 1b7a 223e c4f6 a23d d70c 97bf 138c 973f
00000100: 99c3 09bf f6f8 243e 1de5 3ebe b3de 223f
00000110: 000a be3e 57bd 9d3f bff2 953e 8d1e 34bf
00000120: 85a3 023f 4e0c 933e 2c95 0bbf 026e 29be
00000130: a46f 363f 1f1b a23d 1d5a 1b3f 22ee 5d3e
00000140: a018 08bf 8651 a4be bd8b 77bf c64c af3a
00000150: d340 d63f 8ce5 a33f b794 65bf 1006 4cbf
00000160: b3bc e23e 19ab 483f 4ff0 24bd f136 20bf
00000170: fba8 33bd f15e 50bf 966f b2bc aac4 f53e
00000180: 437d 41bd 7066 5c3e e235 913f 486e c43e
00000190: 7f20 2d3e 080b c6bc 69df 7bbf dac3 603f
000001a0: f8af 31bf 7226 a7bf 3325 83be 13e5 19be
000001b0: 0892 c23e 6adb d93d bcf2 10bf f74b 7ebe
000001c0: 051d 1b3e 6b19 2a3e 5846 253f c978 00bf
000001d0: 2714 38bf 2111 40bf d352 093e f574 c63e
000001e0: c411 99bf bbbd e2be 76ab 073f 8032 96bb
000001f0: 15fa 653f 0bd5 a33d 0c1b 193f 965b c63e
00000200: 46e1 19be 1a30 8c3f d36f 15bf b156 f1bd
00000210: b515 a13f 16ee b43f 01a8 173f a382 98bf
00000220: 8f78 f83e b56d 37be 59cf 0dbf b1b5 ec3e
00000230: 83b2 46bf 9888 b73f 50c3 a33f 98ff 88bf
00000240: 7bc1 b03f b5a6 87be 2eee 11bf 6e5f 65bf
00000250: 0937 863f 111e f63f d72f 0340 b348 0ebe
00000260: 8059 763f 3e14 c43d 7b75 04c0 70ad ae3f
00000270: c382 fbbd f008 253f 98f7 713f 63a4 e63e
00000280: a604 77bf 95c3 f2be 11ef b23e 2dfe 443f
00000290: 4201 13bf aa6b 82be 6f85 613f 8de5 62be
000002a0: fb9c 023f a976 62bf 0a9c c53f a3aa 6abf
000002b0: b576 e23e 6bf8 50bf 9dc0 66bf 5fab f2be
000002c0: 3af9 e4bf 4643 9fbe 5173 3bbd a62e 103e
000002d0: 57e5 1e3f 7c0b 2e3f 180c c3bc 72b8 223f
000002e0: 31fe 39bf e785 c3be a4a1 423d 83cd 363f
000002f0: 889d 353f 774a 2abe 416a 8fbf e949 3abf
00000300: 590a f3bd 4e66 5ebf 9f94 9fbe 9684 96bd
00000310: 456e 4e3f e1f6 ac3f 09d5 1fbf 50ed 54bf
00000320: f47b cc3f f524 b63e f580 2cbf c445 cebf
00000330: baa8 b3be 90d1 c4bd ab59 b33d 242b 9dbf
00000340: 080a 2840 1f71 5d3f aac9 54be d2a8 50bf
00000350: df5d aabf e987 96bf 205f 8a3e 6781 a63e
00000360: f96b 89bf 0fb5 bc3e 3a28 313f f637 303e
00000370: ae33 7c3f bf7a 05bf 519e 3abf 0920 563f
00000380: ed03 b2bc ffeb 1ebf 3dbf 673f e8cd afbf
00000390: 8508 03bf a2ae 1fbf 26e4 b33e 3c76 e03d
000003a0: 2d20 d83f 63fe 7e3f c51c 8e3f 763c 873d
000003b0: 6afa 813e acb3 0b3f df63 9a3e c066 c7be
000003c0: 9a80 e6bd 5307 90be 4522 173f a2b4 98bd
000003d0: a2cb c5bf f575 05bf 03ee 213e 20de 6dbf
000003e0: 99b1 67bf 01ab 9a3e 4bb7 e13e 4ab5 9d3f
000003f0: f63c 5f3f 9563 febd 145f 513f a4b9 eabe

rnn.bias_ih_l0_reverse f4 [64]
-0.122826554 0.04700646 0.4047156 -0.039442144 -0.18971647 -0.29085836 -0.030078817 0.15178707
0.2861082 1.2892729 0.110250294 0.88950115 0.14171517 0.27529746 0.25426647 0.00031243474
0.18428512 0.10667124 0.16374446 -0.111906245 -0.27435172 0.5602127 0.62947387 -0.036284648
0.078153044 -0.31009316 0.16912174 0.33253616 -0.102701776 0.27350116 -0.13329493 0.22538418
0.50285465 -0.3599106 -0.45979333 0.1084668 -0.029326554 0.2813813 -0.3193255 0.15618664
-0.03563652 0.5106679 -0.2743894 -0.34906277 -0.46780866 -0.4059248 -0.1148969 -0.011840389
-0.07152988 0.44644952 0.025523653 0.8511577 -0.39780557 -0.13770877 0.698198 -0.033447843
0.41608092 0.5700933 -0.50727844 0.38151348 0.13484845 -0.13073908 0.87361246 0.36591887
00000000: 7d8c fbbd d989 403d e236 cf3e 168e 21bd
00000010: 0945 42be 63eb 94be da67 f6bc 126e 1b3e
00000020: c67c 923e e506 a53f e8ca e13d 59b6 633f
00000030: c81d 113e caf3 8c3e 372f 823e 48ce a339
00000040: 3db5 3c3e 7376 da3d a1ac 273e 1a2f e5bd
00000050: d477 8cbe 196a 0f3f 3325 213f 369f 14bd
00000060: b40e a03d 88c4 9ebe 402e 2d3e 2e42 aa3e
00000070: 4f55 d2bd 5808 8c3e 777e 08be 1ccb 663e
00000080: 15bb 003f 3446 b8be 086a ebbe d723 de3d
00000090: 3e3e f0bc 3611 903e a27e a3be 64ef 1f3e
000000a0: 99f7 11bd 22bb 023f c47c 8cbe 5bb8 b2be
000000b0: 9e84 efbe 60d5 cfbe 114f ebbd 31fe 41bc
000000c0: 427e 92bd 0895 e43e fb16 d13c 79e5 593f
000000d0: 2cad cbbe 8703 0dbe 1bbd 323f 9b00 09bd
000000e0: 8f08 d53e a2f1 113f 00dd 01bf bc55 c33e
000000f0: b615 0a3e 77e0 05be 11a5 5f3f b859 bb3e

rnn.bias_hh_l0_reverse f4 [64]
0.14992078 -0.060435764 0.22459956 0.021393692 -0.086646445 -0.5224236 -0.09751977 -0.058546472
-0.036916424 1.0213796 -0.095301926 0.8446882 0.20065936 0.60381603 0.32922095 -0.169374
0.20871848 -0.030814132 0.03521491 0.049600404 -0.29036263 0.35654297 0.6060351 0.1181613
-0.030588418 -0.40902886 0.17392677 0.56354296 -0.10455785 0.2616388 -0.11523593 0.23845921
0.4857882 -0.4273879 -0.14051078 0.17404881 -0.3793005 -0.07028508 -0.09781412 0.29065612
0.1598845 0.44998747 -0.23089096 -0.40427038 -0.47823337 -0.44944736 -0.0010351391 0.35597873
0.07526094 0.66859394 -0.03458461 1.0146004 -0.29385844 -0.21974225 0.8543229 -0.011823464
0.25419763 0.8197502 -0.39808273 0.014159202 0.21215817 0.017305756 0.5762422 0.08960426
00000000: d584 193e 7e8b 77bd 6dfd 653e d341 af3c
00000010: b173 b1bd 8ebd 05bf 72b8 c7bd 6dce 6fbd
00000020: ad35 17bd 91bc 823f a82d c3bd 7c3d 583f
00000030: a679 4d3e b093 1a3f a68f a83e 6170 2dbe
00000040: 4cba 553e eb6d fcbc 823d 103d cb29 4b3d
00000050: 69aa 94be cd8c b63e 1e25 1b3f 8dfe f13d
00000060: 9094 fabc 3b6c d1be dc19 323e 5a44 103f
00000070: 6d22 d6bd 85f5 853e d100 ecbd a72e 743e
00000080: 3bb9 f83e 96d2 dabe 0fe2 0fbe da39 323e
00000090: ad33 c2be a0f1 8fbd c552 c8bd e1d0 943e
000000a0: c3b8 233e c264 e63e ae6e 6cbe 87fc cebe
000000b0: 01db f4be f71d e6be 81ad 87ba d842 b63e
000000c0: 6822 9a3d f928 2b3f 98a8 0dbd 6dde 813f
000000d0: 9d74 96be 1d04 61be e8b4 5a3f 34b7 41bc
000000e0: 3126 823e 26db 513f 80d1 cbbe fffb 673c
000000f0: fe3f 593e cdc4 8d3c 9c84 133f 7082 b73d

rnn.weight_ih_l1 f4 [64, 32]
-0.7220971 0.588418 -0.07694757 -1.0881007 0.39866954 -0.16303484 -0.61369234 0.57278675
-0.31981078 0.21044573 -1.3535894 -0.96393794 -0.22066458 1.8031795 1.413391 0.20926668
-0.5234407 -1.356986 0.7869587 -1.037245 0.4052266 1.102394 -0.21750917 0.36428598
0.6651797 -0.23404965 -0.6037917 -0.3299411 -0.26066643 1.0658423 -0.7273184 0.33123812
0.44185832 0.38877878 0.18226443 -0.8859978 -0.31203035 -0.21399534 -0.008895237 0.42183805
0.11377911 -0.49792513 -0.18274567 -0.67797124 -0.21283174 0.5685801 -0.5914994 -0.15906978
-0.6536427 -0.9007722 0.28160647 -0.11003379 0.11622006 0.8512267 -0.36190757 0.50527626
-1.0201861 -0.77892816 0.22720489 -0.659467 0.84848267 -0.3294074 -0.47950485 1.7999675
0.5526848 0.18269661 -0.30076402 -0.102493994 -0.13764568 0.018256998 -1.4452676 0.55406
0.97887754 0.3296711 -1.3893411 0.36145136 0.7488468 0.2180916 -0.7017526 -0.3323251
-0.62829775 1.229477 0.09520888 -0.21619269 -0.25127047 -0.24985535 -0.48093852 0.9002134
-0.53865135 -0.08806565 0.31422928 -0.21983883 0.7498471 -0.72253925 0.5618619 -0.8756728
-0.23032811 0.109197065 0.53041285 -0.29859418 0.00079784065 -0.4307817 -0.125452 -0.30169708
0.45138386 -0.76809853 0.0888777 -0.34129474 0.33065927 -0.19928928 0.89818394 -0.6186602
-0.39662093 -1.2557918 0.42478064 0.07461225 -0.18229315 0.75234634 -1.0718558 -1.1326883
1.2927856 -0.020862514 0.57228816 0.43082058 -1.3133057 -0.29237708 0.19315821 0.7049148
-0.35342443 0.1717275 0.124554455 0.13471293 0.760802 1.2460653 -0.43208653 0.060519993
1.6169771 1.2852722 -0.82030624 0.619363 -0.19880413 0.4011881 0.114887394 -1.7670339
-0.053025395 0.23024856 0.17436579 -1.191479 -0.3722113 -0.32521328 -0.46775156 -1.0194076
1.3332849 0.11127296 -0.17976302 0.3339355 1.1794322 0.22140197 1.0408161 -1.474773
1.1709758 0.91160274 -0.10187709 0.84657514 -0.23793796 0.7870495 0.19511163 -0.073262095
-0.030292971 0.68684345 0.36658648 -0.17722118 0.25630125 -1.3647437 1.3633292 -0.16228151
-0.88405305 -1.1757916 0.33287767 -0.58553934 0.7958393 1.3371731 -0.004190051 -1.6442268
0.5420248 0.20215629 0.7790346 0.31783444 0.8346836 0.5186993 0.435372 -0.61461985
0.13916978 1.5716528 -0.63474613 -0.55471116 0.1818061 0.52020496 0.07743221 0.0814454
1.4603126 0.20198953 -0.48684126 -0.2858813 1.4065658 -1.0729597 -1.5982652 0.20941204
-0.2901822 -0.87285274 0.50520194 0.34410116 -2.4091861 -0.84474665 0.8076852 0.2669268
0.06402972 -0.01120146 0.037847612 0.48770994 0.154171 0.5581712 -0.84982574 1.0265765
0.43107015 0.6657842 -0.040405363 -0.62834656 0.362107 0.44391668 -0.12302748 0.79358774
0.35141888 0.38729876 -0.15601228 0.26122218 -0.20311198 0.20947775 0.014824039 -1.6003147
-0.09955406 0.20802203 -0.23660123 0.24208167 0.25294942 0.40042192 -0.19938213 1.242208
0.018373681 -0.34441835 0.8829299 -0.9290778 0.623793 0.18703744 0.30589068 -0.22968636
00000000: 5bdb 38bf 90a2 163f b096 9dbd e246 8bbf
00000010: 6a1e cc3e 9bf2 26be f11a 1dbf 27a2 123f
00000020: 3dbe a3be 167f 573e 6b42 adbf a3c4 76bf
00000030: e5f5 61be 96ce e63f ffe9 b43f 014a 563e
00000040: 3600 06bf b8b1 adbf 2076 493f 72c4 84bf
00000050: dc79 cf3e 3f1b 8d3f b9ba 5ebe b183 ba3e
00000060: 3849 2a3f b6aa 6fbe 1892 1abf 0aee a8be
00000070: 1276 85be 856d 883f 8a31 3abf 0b98 a93e
00000080: 413b e23e 030e c73e 87a3 3a3e c0d0 62bf
00000090: 71c2 9fbe 9821 5bbe 54bd 11bc 28fb d73e
000000a0: 0605 e93d 0bf0 febe ae21 3bbe 868f 2dbf
000000b0: 90f0 59be 778e 113f 816c 17bf 30e3 22be
000000c0: 2155 27bf 0299 66bf b92e 903e 6559 e1bd
000000d0: c804 ee3d fee9 593f f34b b9be c959 013f
000000e0: 7595 82bf d667 47bf 66a8 683e d4d2 28bf
000000f0: 2936 593f 16a8 a8be a981 f5be 5665 e63f
00000100: c07c 0d3f d214 3b3e befd 99be 5fe8 d1bd
00000110: fdf2 0cbe b38f 953c 87fe b8bf e0d6 0d3f
00000120: b897 7a3f a7ca a83e eed5 b1bf 2710 b93e
00000130: 6db4 3f3f 6853 5f3e 0fa6 33bf 8426 aabe
00000140: 1fd8 20bf 815f 9d3f e0fc c23d 9e61 5dbe
00000150: 86a6 80be 15da 7fbe 933d f6be 6374 663f
00000160: 0ee5 09bf c35b b4bd a9e2 a03e 6e1d 61be
00000170: fbf5 3f3f 55f8 38bf 2ed6 0f3f 182c 60bf
00000180: 22db 6bbe b6a2 df3d 23c9 073f 56e1 98be
00000190: 2e26 513a 6b8f dcbe 7d76 00be 0a78 9abe
000001a0: c91b e73e 1ba2 44bf 8305 b63d 2fbe aebe
000001b0: 2c4c a93e 7d12 4cbe 62ef 653f 8460 1ebf
000001c0: e611 cbbe c9bd a0bf d97c d93e 4fce 983d
000001d0: 0eab 3abe c599 403f 9232 89bf eefb 90bf
000001e0: 007a a53f dde7 aabc 7a81 123f 8494 dc3e
000001f0: 671a a8bf 73b2 95be 44cb 453e 4c75 343f
00000200: 0cf4 b4be 55d9 2f3e 6816 ff3d 30f2 093e
00000210: ebc3 423f 117f 9f3f 723a ddbe d0e3 773d
00000220: 1bf9 ce3f cd83 a43f 97ff 51bf 938e 1e3f
00000230: 4f93 4bbe 8768 cd3e 154a eb3d 2b2e e2bf
00000240: 2831 59bd 47c6 6b3e f28c 323e 6282 98bf
00000250: 7b92 bebe 5b82 a6be 227d efbe f37b 82bf
00000260: 14a9 aa3f 14e3 e33d cc13 38be 98f9 aa3e
00000270: a2f7 963f 33b7 623e 7639 853f 5dc5 bcbf
00000280: 89e2 953f cc5e 693f f0a4 d0bd 26b9 583f
00000290: 02a6 73be 137c 493f 58cb 473e 700a 96bd
000002a0: f728 f8bc f9d4 2f3f 39b1 bb3e 7879 35be
000002b0: eb39 833e ecaf aebf 9281 ae3f 202d 26be
000002c0: 4d51 62bf 5780 96bf f16e aa3e e8e5 15bf
000002d0: 20bc 4b3f 7d28 ab3f b24c 89bb 0676 d2bf
000002e0: 23c2 0a3f 0f02 4f3e d06e 473f 32bb a23e
000002f0: d3ad 553f 7ac9 043f 14e9 de3e ba57 1dbf
00000300: 8682 0e3e eb2b c93f b97e 22bf 8d01 0ebf
00000310: 612b 3a3e 272c 053f c794 9e3d d9cc a63d
00000320: 86eb ba3f 58d6 4e3e 4243 f9be 095f 92be
00000330: 590a b43f be56 89bf f493 ccbf 1c70 563e
00000340: c392 94be 4773 5fbf ea54 013f 072e b03e
00000350: 1b30 1ac0 5141 58bf 75c4 4e3f a1aa 883e
00000360: 0422 833d 5486 37bc 1906 1b3d 1eb5 f93e
00000370: 01df 1d3e 4fe4 0e3f 2e8e 59bf dc66 833f
00000380: 3ab5 dc3e d570 2a3f 1880 25bd 52db 20bf
00000390: 1766 b93e 0c49 e33e d5f5 fbbd 9128 4b3f
000003a0: 2ded b33e 064c c63e afc1 1fbe eabe 853e
000003b0: 96fc 4fbe 5681 563e 87e0 723c 1dd7 ccbf
000003c0: 00e3 cbbd ba03 553e 9847 72be 42e4 773e
000003d0: 9682 813e 1a04 cd3e d42a 4cbe ac00 9f3f
000003e0: 6784 963c 9a57 b0be b207 623f 0bd8 6dbf
000003f0: e6b0 1f3f be86 3f3e b49d 9c3e e732 6bbe

rnn.weight_hh_l1 f4 [64, 16]
-0.57592666 -1.4397749 1.2625926 -0.20070961 -0.36956438 -0.06898322 -0.30827653 0.20894106
-1.4057623 -0.040979914 1.6374418 0.09528456 2.0899022 1.4992504 -0.23132393 0.31142136
1.2970247 -0.543685 0.6835491 0.9974562 -0.19276462 0.018035378 -0.4657835 -0.64662564
-1.5415021 0.25039232 0.021148216 -0.6996624 1.762207 1.1938635 -1.2028992 -0.5379807
-1.3321856 0.009252975 1.1384176 -0.18592568 -0.22588179 0.3162025 0.3085034 -0.77538633
-0.7456386 -0.39592695 0.060310993 0.47986358 1.6116942 -1.4558903 0.6008505 -0.82546616
-1.3258214 -1.075668 1.5198073 0.39078352 -0.12701035 -0.08060814 -1.7468276 -1.0502357
-0.26819837 1.0063078 0.91208404 0.17876765 0.91175324 0.817648 -0.1330155 -0.17705704
-1.4708291 0.2125004 -0.15774545 -0.1258904 -0.56028444 -0.8369993 -1.0217248 -0.48050272
1.5424042 -0.78751725 0.7907114 1.1379635 -0.8041594 -0.5913042 0.5457867 -0.112199746
0.2859369 -0.38821638 -0.29489374 -0.93809104 0.43536818 -0.2724834 -0.90040797 -0.028478589
0.818221 0.75863117 0.22594772 0.9864005 -0.57969666 -0.6968959 1.4064218 -0.7238559
-0.76370585 -0.045748122 0.24376136 -0.10628463 1.1300573 -0.77892375 -0.62678576 -0.24533443
0.044564564 0.6233617 0.28633487 0.7515381 0.39170855 -0.78827643 -1.3279417 -1.2485433
-2.2619162 -0.49085873 1.3808545 -0.8868216 -0.50033754 3.066127 -1.6358609 -0.49344587
-0.04360103 0.81752694 0.5020189 -0.5645094 -1.4228264 -0.0555172 -0.47559664 -0.1853482
-0.25430495 -0.9757165 0.054571763 -0.70504844 0.29437762 -1.4800718 -0.8789959 0.41623464
-0.079957135 -0.77562946 -0.43073905 -0.2937976 0.5117772 -0.30369106 -0.6760416 0.30175275
-1.3365486 1.3471712 1.1530757 -1.0206832 -0.20976564 -0.5485289 -2.139251 -0.9982199
1.8750936 1.7926359 -0.4092005 1.382722 -1.1410303 -0.7553716 1.3496618 -0.5159591
-0.7864032 -0.18856108 0.11857976 0.028675528 -0.30706927 -0.4958949 -1.811963 -0.39443514
1.0550926 1.3939385 0.36117163 -0.073928654 -0.9096469 -0.78520465 -0.5523078 -1.0657891
0.82922995 0.635952 0.06280029 -0.57691693 2.0684311 0.33732578 -0.28811592 -2.0721083
-0.5308315 -1.4733148 -0.9105803 -0.46344075 -0.55402285 0.43748686 -1.1798651 -1.6281618
-0.6524747 -0.61801183 -0.22465602 1.5930287 -0.67673916 1.1769677 -1.2148821 0.35746115
-1.2878524 -0.5103402 1.524562 -1.1012217 1.4856331 0.5222407 -1.0539927 0.44213098
0.3429411 -1.0471272 0.17710419 -0.71522963 0.72408414 1.0592173 -0.06212409 -1.3457063
-0.34457827 0.138778 0.23090957 -0.8007877 -1.7754543 0.0976296 -0.6186903 -0.22414438
-0.89071256 -0.024165666 1.7175653 -0.21654753 0.70741564 0.15715802 -0.08154456 -0.9471242
-0.2632077 -0.09414462 -0.1987013 -1.3691092 0.026487727 0.23886998 -1.7652063 -1.9808851
-0.5104267 0.69127 0.5533545 0.04361076 0.39937863 1.110504 -1.2544192 -0.5323495
0.11385862 0.92582417 -0.7052717 0.4879978 -0.4321044 -1.743195 -0.2792317 -0.09841426
00000000: ee6f 13bf 8b4a b8bf a29c a13f d286 4dbe
00000010: 8b37 bdbe 1347 8dbd 6cd6 9dbe a5f4 553e
00000020: 05f0 b3bf 8eda 27bd b197 d13f 8d24 c33d
00000030: f5c0 0540 70e7 bf3f 2ee0 6cbe 9f72 9f3e
00000040: e804 a63f f12e 0bbf 13fd 2e3f 4a59 7f3f
00000050: 1764 45be eebe 933c 2d7b eebe 4289 25bf
00000060: f14f c5bf 6c33 803e 063f ad3c 131d 33bf
00000070: 0090 e13f 85d0 983f 9af8 99bf 1ab9 09bf
00000080: 0f85 aabf ca99 173c abb7 913f 4d63 3ebe
00000090: 8e4d 67be 4be5 a13e 28f4 9d3e b87f 46bf
000000a0: 2ce2 3ebf f0b6 cabe a908 773d aeb0 f53e
000000b0: ff4b ce3f 9d5a babf 57d1 193f c051 53bf
000000c0: 84b4 a9bf 7daf 89bf 0c89 c23f c714 c83e
000000d0: 000f 02be e115 a5bd 0c98 dfbf 206e 86bf
000000e0: 4c51 89be b2ce 803f 577e 693f de0e 373e
000000f0: a968 693f 6151 513f 3735 08be 714e 35be
00000100: 2144 bcbf b499 593e 0688 21be 6ae9 00be
00000110: cd6e 0fbf 9645 56bf e1c7 82bf 7404 f6be
00000120: 806d c53f bb9a 49bf 106c 4a3f caa8 913f
00000130: 64dd 4dbf b65f 17bf adb8 0b3f fbc8 e5bd
00000140: 5266 923e 4cc4 c6be 50fc 96be bc26 70bf
00000150: 94e8 de3e f282 8bbe 2381 66bf ee4b e9bc
00000160: ee76 513f a735 423f d75e 673e be84 7c3f
00000170: 0067 14bf c567 32bf a105 b43f 9f4e 39bf
00000180: 3a82 43bf 6262 3bbd 949c 793e c2ab d9bd
00000190: b8a5 903f 8c67 47bf 0875 20bf f338 7bbe
000001a0: 5589 363d a294 1f3f 7c9a 923e cd64 403f
000001b0: 068e c83e 7ccc 49bf fef9 a9bf 44d0 9fbf
000001c0: 3cc3 10c0 d651 fbbe d7bf b03f be06 63bf
000001d0: 1f16 00bf 6d3b 4440 e463 d1bf f0a4 fcbe
000001e0: fe96 32bd 7249 513f 5084 003f b083 10bf
000001f0: 2d1f b6bf 0166 63bd 6781 f3be ebcb 3dbe
00000200: 4234 82be 8ec8 79bf a486 5f3d 0e7e 34bf
00000210: aab8 963e fe72 bdbf e005 61bf b51c d53e
00000220: 91c0 a3bd a78f 46bf d489 dcbe a46c 96be
00000230: d503 033f 657d 9bbe 1011 2dbf 567f 9a3e
00000240: 0614 abbf 1b70 ac3f fc97 933f bfa5 82bf
00000250: cecc 56be 646c 0cbf 7de9 08c0 578b 7fbf
00000260: 1103 f03f 1875 e53f ba82 d1be 09fd b03f
00000270: 480d 92bf 0860 41bf b8c1 ac3f e515 04bf
00000280: b851 49bf 2816 41be f2d9 f23d f1e8 ea3c
00000290: 2f38 9dbe f0e5 fdbe 67ee e7bf 67f3 c9be
000002a0: 460d 873f 946c b23f 7deb b83e e867 97bd
000002b0: 9fde 68bf 2c03 49bf 0b64 0dbf c76b 88bf
000002c0: 6a48 543f c0cd 223f 709d 803d d4b0 13bf
000002d0: 2d61 0440 f7b5 ac3e ee83 93be 6c9d 04c0
000002e0: 93e4 07bf 9495 bcbf ca1b 69bf 1b48 edbe
000002f0: 71d4 0dbf 47fe df3e d205 97bf 9b67 d0bf
00000300: 9508 27bf 0636 1ebf 3a0c 66be 5de8 cb3f
00000310: c73e 2dbf e1a6 963f 4281 9bbf 2605 b73e
00000320: 59d8 a4bf a8a5 02bf d924 c33f d5f4 8cbf
00000330: 3a29 be3f 91b1 053f 3ce9 86bf fe5e e23e
00000340: fa95 af3e 4408 86bf cd5a 353e 4a19 37bf
00000350: 945d 393f 6f94 873f d475 7ebd 1b40 acbf
00000360: 906c b0be d21b 0e3e 8f73 6c3e 6c00 4dbf
00000370: 1642 e3bf 07f2 c73d 7d62 1ebf 1b86 65be
00000380: bd05 64bf 13f7 c5bc 2ed9 db3f a3be 5dbe
00000390: 3119 353f 08ee 203e d600 a7bd bb76 72bf
000003a0: 29c3 86be e5ce c0bd 5b78 4bbe f83e afbf
000003b0: cafc d83c 559a 743e 48f2 e1bf a58d fdbf
000003c0: 53ab 02bf 12f7 303f a4a8 0d3f 32a1 323d
000003d0: 5b7b cc3e ff24 8e3f cf90 a0bf 0f48 08bf
000003e0: b52e e93d d002 6d3f b08c 34bf d9da f93e
000003f0: ca3c ddbe 0421 dfbf 75f7 8ebe 6a8d c9bd

rnn.bias_ih_l1 f4 [64]
-0.028112717 0.6579628 0.5507403 0.21941696 0.013606298 -0.01459746 0.13522598 0.6259513
0.38523334 0.054071363 0.51074326 0.3818544 -0.1162977 -0.09110689 -0.28622168 0.2649663
0.116432935 -0.39741847 -0.013669225 0.13052835 0.40461078 -0.41245943 0.064414196 -0.5348687
-0.08080631 0.23591447 0.29089364 0.21348393 -0.9303586 -0.21239036 0.039990842 -0.55977076
0.18720569 -0.099903874 0.1321972 -0.46630865 0.16748773 0.25244808 -0.22916403 -0.013950294
-0.0037358988 0.54779124 0.24188456 -0.08752835 -0.2658152 0.14987203 -0.23585634 0.05224536
0.14326084 0.5540954 0.25414798 0.37800485 -0.1701831 0.19452544 0.61988384 0.35566062
0.19235031 0.4690236 0.4971209 0.61820984 -0.07429677 0.6389715 0.1543039 0.028428972
00000000: a44c e6bc 4070 283f 51fd 0c3f d7ae 603e
00000010: f3ec 5e3c 2f2a 6fbc ae78 0a3e 583e 203f
00000020: 4e3d c53e ef79 5d3d 12c0 023f 6b82 c33e
00000030: 7d2d eebd 4096 babd a68b 92be aaa9 873e
00000040: 6474 ee3d 6f7a cbbe e3f4 5fbc 39a9 053e
00000050: 2529 cf3e e22d d3be 97eb 833d 28ed 08bf
00000060: c77d a5bd 9093 713e 03f0 943e 889b 5a3e
00000070: fb2b 6ebf dc7c 59be 70cd 233d 234d 0fbf
00000080: d9b2 3f3e 679a ccbd b45e 073e 02c0 eebe
00000090: e781 2b3e e040 813e faa9 6abe c68f 64bc
000000a0: fbd5 74bb 0c3c 0c3f 96b0 773e 1042 b3bd
000000b0: ee18 88be 0e78 193e 5384 71be 3bff 553d
000000c0: f8b2 123e 32d9 0d3f af1f 823e da89 c13e
000000d0: 7b44 2ebe ad31 473e b5b0 1e3f 2619 b63e
000000e0: 7bf7 443e dc23 f03e a186 fe3e 0043 1e3f
000000f0: e828 98bd a393 233f d701 1e3e e0e3 e83c
